…
radient step). The learning rate is also lowered as time passes, and filters are not initialized randomly. Dropout (ratio of \\(0.5\\)) is used in fully-connected layers. VGG16 structure is as follow. ## Model ## Model: &quot;vgg16&quot; ## ________________________________________________________________________________ ## Layer (type) Output Shape Param # ## ================================================================================ ## input_1 (InputLayer) [(None, 150, 150, 3)] 0 ## ________________________________________________________________________________ ## block1_conv1 (Conv2D) (None, 150, 150, 64) 1792 ## ________________________________________________________________________________ ## block1_conv2 (Conv2D) (None, 150, 150, 64) 36928 ## ________________________________________________________________________________ ## block1_pool (MaxPooling2D) (None, 75, 75, 64) 0 ## ________________________________________________________________________________ ## block2_conv1 (Conv2D) (None, 75, 75, 128) 73856 ## ________________________________________________________________________________ ## block2_conv2 (Conv2D) (None, 75, 75, 128) 147584 ## ________________________________________________________________________________ ## block2_pool (MaxPooling2D) (None, 37, 37, 128) 0 ## ________________________________________________________________________________ ## block3_conv1 (Conv2D) (None, 37, 37, 256) 295168 ## ________________________________________________________________________________ ## block3_conv2 (Conv2D) (None, 37, 37, 256) 590080 ## ________________________________________________________________________________ ## block3_conv3 (Conv2D) (None, 37, 37, 256) 590080 ## ________________________________________________________________________________ ## block3_pool (MaxPooling2D) (None, 18, 18, 256) 0 ## ________________________________________________________________________________ ## block4_conv1 (Conv2D) (None, 18, 18, 512) 1180160 ## ________________________________________________________________________________ ## block4_conv2 (Conv2D) (None, 18, 18, 512) 2359808 ## ________________________________________________________________________________ ## block4_conv3 (Conv2D) (None, 18, 18, 512) 2359808 ## ________________________________________________________________________________ ## block4_pool (MaxPooling2D) (None, 9, 9, 512) 0 ## ________________________________________________________________________________ ## block5_conv1 (Conv2D) (None, 9, 9, 512) 2359808 ## ________________________________________________________________________________ ## block5_conv2 (Conv2D) (None, 9, 9, 512) 2359808 ## ________________________________________________________________________________ ## block5_conv3 (Conv2D) (None, 9, 9, 512) 2359808 ## ________________________________________________________________________________ ## block5_pool (MaxPooling2D) (None, 4, 4, 512) 0 ## ================================================================================ ## Total params: 14,714,688 ## Trainable params: 14,714,688 ## Non-trainable params: 0 ## ________________________________________________________________________________ We keep the convolution/pooling layers, already trained, and replace the fully connected layer with our own. The last layer has a sigmoid activation to predict the constructor, either of Airbus or Boeing. ## Model ## Model: &quot;sequential&quot; ## ________________________________________________________________________________ ## Layer (type) Output Shape Param # ## ================================================================================ ## vgg16 (Model) (None, 4, 4, 512) 14714688 ## ________________________________________________________________________________ ## flatten (Flatten) (None, 8192) 0 ## ________________________________________________________________________________ ## dense (Dense) (None, 256) 2097408 ## ________________________________________________________________________________ ## dense_1 (Dense) (None, 1) 257 ## ================================================================================ ## Total params: 16,812,353 ## Trainable params: 16,812,353 ## Non-trainable params: 0 ## ________________________________________________________________________________ Then, we unfreeze previously frozen layers. This means that some convolution/pooling layers (those after “block3_conv1”) are going to be trained even though its original use was to bring its already trained architecture. This has shown to boost performance. ## Model ## Model: &quot;sequential&quot; ## ________________________________________________________________________________ ## Layer (type) Output Shape Param # ## ================================================================================ ## vgg16 (Model) (None, 4, 4, 512) 14714688 ## ________________________________________________________________________________ ## flatten (Flatten) (None, 8192) 0 ## ________________________________________________________________________________ ## dense (Dense) (None, 256) 2097408 ## ________________________________________________________________________________ ## dense_1 (Dense) (None, 1) 257 ## ================================================================================ ## Total params: 16,812,353 ## Trainable params: 16,552,193 ## Non-trainable params: 260,160 ## ________________________________________________________________________________ We perform some data augmentation: rotation, zoom, horizontal flip. train_datagen = image_data_generator( rescale = 1/255, rotation_range 
…
